app/src/main/assets/spam_model.tflite (tflite, 644208 bytes, 4 tensors)

arith.constant f4 [16]
000000 8f 51 d1 bd cf 8b 7f 3e c5 fb 08 be 41 f4 06 be
       -0.10220634 0.24955676 -0.13377292 -0.13179113
000010 f6 e5 6f 3e d3 a3 00 be 7a c8 c4 3b 00 00 00 00
       0.23427567 -0.12562494 0.006005344 0.0
000020 4f d6 78 bc 42 19 40 be 00 00 00 00 a2 0e b6 bc
       -0.015187814 -0.18759635 0.0 -0.022223774
000030 f0 a4 e1 bb 24 c8 c4 bb aa dc 0c be 6a c6 c4 bb
       -0.006886117 -0.006005304 -0.13756052 -0.006005098

arith.constant2 f4 [1, 16]
000000 95 1b 6a bf a2 ec 94 3f bb 95 61 bf f9 a0 20 bf
       -0.91448337 1.1634715 -0.88119096 -0.62745625
000010 54 0f 9f 3f 8a c7 43 bf 20 32 c6 be 2c ea 01 3f
       1.2426553 -0.7647635 -0.38710117 0.5074794
000020 38 0e b2 be 7c f9 11 bf 32 cd 10 bf c4 f1 df 3e
       -0.34776473 -0.5702131 -0.56563103 0.4373914
000030 e3 b1 e5 3d f1 78 93 3e 2c a3 42 bf ff 46 0d 3f
       0.1121557 0.28803208 -0.7603023 0.55186456

arith.constant3 f4 [16, 16]
000000 07 28 39 3e 9a ec 86 3e c5 14 3d bf d7 dc 06 bf
       0.18081675 0.26352388 -0.73859817 -0.52680725
000010 f4 92 9d be 86 df b5 3e 88 2c a5 3f 00 87 9d 3e
       -0.3077618 0.35522097 1.2904215 0.3076706
000020 f6 c4 a3 3e 5f 42 0b 3f b3 06 21 bf 43 6c 16 bf
       0.31986207 0.5439815 -0.6290085 -0.58758944
000030 83 a2 b6 3e 8a 5f a4 be 1a 73 51 be 6a 82 1c 3f
       0.35670862 -0.3210414 -0.20454064 0.61136496
000040 56 f5 a1 be 0b 78 43 bf 0e ee 8d 3f 07 80 95 3f
       -0.3163249 -0.76355046 1.1088274 1.1679696
000050 96 87 1d be 60 e8 88 be bd 14 52 bf 4f 5e 4e bd
       -0.15383753 -0.26739788 -0.82062894 -0.05038291
000060 a8 53 0d bf 8d 07 6f bd f6 b7 e3 3e c2 ac 31 3f
       -0.55205774 -0.05835681 0.4447629 0.6940423
000070 48 fb 8f 3e c7 94 e6 3c 5a 53 cb 3e 37 4c 94 bf
       0.281214 0.028147114 0.3971203 -1.1585759
000080 37 76 f9 be f4 a3 2f 3f 3a 25 58 bf 66 4b 0e bf
       -0.48723003 0.6860955 -0.84431803 -0.555838
000090 83 9e 04 bf 63 71 ce 3e d3 5a 29 3f 48 56 ed 3e
       -0.5180437 0.40320882 0.6615421 0.4635489
0000a0 c0 2a 86 3e 2f 7a db 3d f6 83 00 be 0f 07 bb 3c
       0.2620449 0.10716664 -0.12550339 0.022830514
0000b0 59 f9 b5 3e 28 1e ed be 71 0b 15 bf 52 18 82 3f
       0.355418 -0.4631207 -0.58220583 1.0163672
0000c0 97 e2 f0 be a3 02 40 3f ca 0c 0c bf f6 94 27 bf
       -0.47047874 0.75004023 -0.54707015 -0.6546167
0000d0 15 8a 18 be c9 d9 a9 3d 7f ec 35 3f ee ca a8 3e
       -0.14896424 0.08293492 0.7106399 0.32967323
0000e0 19 c0 dd 3e 10 74 b7 3e 3a bc 00 3e c6 3d 37 bf
       0.4331062 0.35830736 0.12571803 -0.71578634
0000f0 6c 91 88 bd 74 59 38 bf b2 a8 e5 be b4 74 e2 3e
       -0.06668362 -0.72011495 -0.44855267 0.44229662
000100 35 f7 ba 3c a5 97 2d bf d1 4b 79 3f eb c6 7c 3f
       0.022822956 -0.67809516 0.9738131 0.98741025
000110 b4 90 99 3e 5f 56 9c 3e a8 28 91 bf 5a 7c 52 be
       0.29993212 0.30534646 -1.1340532 -0.20555249
000120 34 30 d3 bc af cd 5a be 32 1f 8a 3e 53 12 f3 3e
       -0.025779821 -0.21367525 0.26976925 0.47474918
000130 70 05 12 3d 21 10 21 3f e7 e9 df bd 0d cc ad bf
       0.035649717 0.62915236 -0.10933285 -1.3577896
000140 f3 84 99 be 3f 7b 9f 3e 9c 68 48 bf 4c 16 db be
       -0.29984245 0.31148717 -0.7828462 -0.4279045
000150 b8 c9 1e bf 3d 58 2b 3f 2f b6 a2 3f ce f7 22 3f
       -0.6202655 0.66931516 1.2711848 0.6365937
000160 39 ad bc 3e 2d 83 fe bd 1f c6 05 bd ac dd 11 bf
       0.36850908 -0.124273635 -0.032659646 -0.5697887
000170 75 29 1f be 70 e3 ae be 87 1b f0 be 83 82 80 3f
       -0.15543158 -0.34157896 -0.46896002 1.0039829
000180 9b e0 c0 3e 47 ff 14 3e 81 a0 3e bd 91 b9 5a be
       0.3767136 0.14550506 -0.046539787 -0.2135985
000190 2e d4 6f 3e cd 7e ab 3e 5f 6e 3b bd 59 27 cf 3e
       0.23420784 0.3349518 -0.045759555 0.40459707
0001a0 44 15 0c be 0e 0c 8b be d8 fa 2f 3e d8 94 ab 3e
       -0.13679987 -0.27157634 0.17185533 0.33511996
0001b0 ac 2e 83 be fb b0 37 3e e9 c6 34 3e 69 9f 5a bd
       -0.25621545 0.17938606 0.17654003 -0.05337468
0001c0 72 33 47 3e 44 15 34 be d8 72 d8 bd c3 80 d6 be
       0.19453219 -0.17586237 -0.1056878 -0.41895112
0001d0 aa 5d 41 3e 24 d8 ce 3d d0 e6 48 be b0 9e b3 be
       0.18883386 0.10099819 -0.19619298 -0.35082006
0001e0 c9 33 ae 3e 90 e6 94 bc e1 31 97 3e 6c 48 36 be
       0.34023884 -0.018176347 0.29530242 -0.17801064
0001f0 34 d0 ef 3d ef 19 9f 3e 42 f1 8a be 44 e4 91 bd
       0.117096335 0.31074473 -0.2713719 -0.07123616
000200 b3 9e 89 3e 15 6b a9 be 5d 83 b6 3d 4f d5 50 bc
       0.2687889 -0.3308951 0.08911774 -0.012746169
000210 bd b2 cf 3c dc 9c c1 be e7 d4 8c be e3 7d b2 be
       0.025353784 -0.37814987 -0.27506182 -0.3486167
000220 2f 19 14 3d de 73 b5 3e 1c fc 8e be 0c 49 41 bd
       0.03615683 0.35439962 -0.2792672 -0.047188804
000230 72 74 80 3e 92 e7 e9 3d 72 25 ad bb 22 76 05 3e
       0.2508884 0.11421122 -0.005284005 0.13033345
000240 fe 65 e4 3d 77 86 52 3f 0f ec 9f bf 24 a0 0c bf
       0.11152266 0.8223643 -1.2493914 -0.54931855
000250 91 dd 22 bf 74 c7 e7 3e 33 27 47 3f 5c 6b 95 3e
       -0.63619334 0.45269358 0.7779419 0.2918347
000260 77 6b 40 3f aa 32 cc 3e 64 3a fc be 9a dc d8 be
       0.7516398 0.39882404 -0.492633 -0.42355806
000270 5e a7 01 3f fc 41 f8 be 4d 0e 8e 3d 9f 20 6c 3f
       0.5064601 -0.48487842 0.069363214 0.92237276
000280 75 13 8e 3e 5a 9a 8b be 00 17 e2 bb 87 29 9b 3e
       0.2774922 -0.27266198 -0.0068997145 0.3030512
000290 47 c0 db 3e cc e8 cf 3d 1f 1d c5 3e af 70 a7 be
       0.42920133 0.10151824 0.3849878 -0.32703158
0002a0 89 f9 d4 be b3 b4 a0 3e 01 dc a7 3e 79 b0 a2 be
       -0.4159663 0.31387863 0.32785037 -0.31775263
0002b0 34 08 85 be 2c 36 9c 3d d9 9f 5c be ab 18 d9 3e
       -0.2598282 0.0762752 -0.21545352 0.42401633
0002c0 c2 67 9b 3e 01 1b c1 3e b1 8a 1b bd 64 0d 03 be
       0.30352598 0.37715915 -0.037974063 -0.12798077
0002d0 95 44 ad be a8 60 2e bd 43 1d 4b 3e 58 84 9d be
       -0.33841386 -0.042572647 0.19835381 -0.30765033
0002e0 d6 00 ee bd 44 15 ad be 10 d0 6f 3e a1 f3 2b 3c
       -0.11621253 -0.33805287 0.23419213 0.010495097
0002f0 af 92 e4 3d 36 37 27 be 4d 59 0b be 29 58 a7 3e
       0.1116079 -0.16329655 -0.13608284 0.32684448
000300 af 64 44 3e 66 72 b5 3e a7 73 a7 bd d2 2c fc bd
       0.19179033 0.35438842 -0.08176356 -0.12313236
000310 2a 8d 71 3e e7 ca ae 3e 4c 7b fd 3c 63 87 ba be
       0.23589006 0.34139177 0.030942582 -0.36431417
000320 b9 68 e1 3d 03 5a b7 be ef ea ff 3d c7 c0 7f 3e
       0.110063024 -0.3581086 0.12495982 0.24975882
000330 71 de 7f be df 53 cb be f1 3a 5e 3e 54 79 c5 3e
       -0.24987198 -0.39712426 0.21702172 0.3856913
000340 27 e0 a8 3e 23 34 62 be 21 60 a0 3e 5e 31 b4 be
       0.32983515 -0.22090201 0.3132334 -0.35193914
000350 15 2a 85 3e ed 9b 62 bd 8b 8a 52 3e ae b2 5a be
       0.2600867 -0.055324484 0.20560662 -0.21357223
000360 9c 16 80 be 60 b4 8c 3d 76 85 90 be 36 0e 58 3d
       -0.2501725 0.06870341 -0.28226823 0.052747928
000370 8e 37 32 3e cc ea d4 bd b0 aa d3 3e 68 f9 be 3e
       0.17404005 -0.103963464 0.41341162 0.37299657
000380 8b bf a1 be ad 04 9f 3e 99 a1 4f bf 9b 62 95 be
       -0.31591448 0.31058255 -0.81105953 -0.29176793
000390 c2 8c 96 be 20 ed 99 3d 99 53 6b 3f 0d a8 d8 3e
       -0.29404265 0.07515931 0.91924435 0.42315713
0003a0 16 7f d6 3e a2 b0 b0 3e 1b f9 86 be ab c4 d3 be
       0.41893834 0.3450976 -0.26361927 -0.41360983
0003b0 29 4a 7e 3e 1f 3b c6 be 32 79 97 be db 05 db 3e
       0.24832977 -0.3871698 -0.29584652 0.42777905
0003c0 58 8d 9e 3c 07 aa f7 3d dd 61 7b 3e ec eb a1 be
       0.019354507 0.12092977 0.2454905 -0.31625307
0003d0 41 9b 95 3e c6 ae 45 3e 11 20 50 3e d5 11 bc bd
       0.29220012 0.19304952 0.20324732 -0.09183089
0003e0 eb 3c d0 3d 19 1e 57 be 3f 80 89 bc e6 08 b1 be
       0.10167869 -0.21007575 -0.016784785 -0.345771
0003f0 e1 9f 81 be fe a9 20 3e d7 9f b4 3e 8d dd 4b 3c
       -0.2531729 0.15689847 0.35278198 0.012442959

arith.constant4 f4 [10000, 16]
000000 1a 34 34 bf e5 d9 06 3d 0e 9c 27 3e 79 1a e5 3e
       -0.70392 0.032922644 0.16368124 0.4474676
000010 37 a4 25 bf c5 fa 61 3f dc 9d 3b be 0d a9 2a 3f
       -0.64703697 0.8827327 -0.18321937 0.666642
000020 68 81 11 3f e9 ef 1e 3f b6 f3 b8 be a2 e6 a2 be
       0.56838083 0.62084824 -0.36123437 -0.31816584
000030 c4 b9 51 3f 1e b4 c0 be 93 58 0a bf 6a 28 70 be
       0.8192408 -0.37637419 -0.54041404 -0.23452917
000040 6d 99 af bf d8 7d fe 3f 94 3a 18 c0 4e 45 eb bf
       -1.3718697 1.9882154 -2.3785753 -1.8380525
000050 ee 44 cb bf 66 9a ca 3f 2b 80 16 40 d8 81 cb 3f
       -1.5880411 1.5828369 2.3515728 1.5899
000060 b4 ed d6 3f fb d0 c1 3f 46 2a d5 bf 51 f3 f3 bf
       1.6791291 1.5141901 -1.6653526 -1.9058629
000070 8d 16 b2 3f 86 62 db bf a5 cc c9 bf 0e b2 04 40
       1.3913132 -1.7139442 -1.5765578 2.0733676
000080 a9 9f 32 3f 9c b1 a4 bf ce 63 ce 3f d7 2e bc 3f
       0.6977487 -1.2866702 1.6124208 1.4701794
000090 e3 bc 77 3f d8 a2 63 bf 4c ca bd bf 66 ad 6a bf
       0.96772593 -0.88920355 -1.4827361 -0.91670835
0000a0 05 35 85 bf 46 01 6d bf c8 d1 8a 3f 27 57 98 3f
       -1.0406805 -0.9258007 1.084527 1.1901597
0000b0 67 20 1d bf f3 24 8a 3f e0 7e 73 3f 89 99 bf bf
       -0.6137757 1.0792526 0.9511547 -1.496873
0000c0 e6 f2 d3 bb 88 42 3e be 51 04 28 3e 7a 4f 15 3e
       -0.0064681647 -0.18580067 0.16407897 0.14581099
0000d0 a0 d4 3e bc 75 81 a8 3c 4d 3d e0 bd 4d 41 45 bc
       -0.011647373 0.020569542 -0.10949192 -0.012039495
0000e0 62 bb ec bd ed cd cf bc a5 69 92 3d 81 b5 88 3d
       -0.11559178 -0.025366748 0.07149056 0.06675244
0000f0 a8 f1 26 3d 36 13 bb 3d 1f 74 96 3d fd 96 58 be
       0.040757805 0.091345236 0.07346367 -0.21151347
000100 da aa db 3e 43 94 5c bf 02 b7 86 3f 74 65 64 3f
       0.42903787 -0.8616373 1.05246 0.89217305
000110 88 d8 1a 3f cc 17 02 bf 12 92 70 bf 9e fe 1e bf
       0.6048665 -0.5081756 -0.93972886 -0.62107265
000120 6a d7 36 bf 1d ae 11 bf ff ca 30 3f e2 16 56 3f
       -0.71422446 -0.569063 0.6905975 0.83628666
000130 e6 dc da be f1 8c 27 3f 1d ff 1c 3f 10 3f 69 bf
       -0.42746657 0.65449435 0.6132677 -0.9111185
000140 3e 8a 39 bd 12 ba d6 bd f2 e8 93 3d eb 14 20 3e
       -0.045297854 -0.10484709 0.07222165 0.1563298
000150 44 c4 9e 3c 08 8f 18 bc 90 dd dc bd 2f 90 2d 3c
       0.019380696 -0.009311445 -0.10784447 0.010593458
000160 db 17 94 bd a6 2a 1d bd fd 18 53 3c 76 1c a5 3d
       -0.072311126 -0.03837075 0.012884376 0.08062069
000170 80 aa 20 3d af b8 be 3d 34 23 c1 bc 99 ba d8 bd
       0.0392251 0.09312569 -0.023576356 -0.10582466
000180 b8 97 39 be 89 93 ca 3d 04 00 62 bd 19 3e 94 bc
       -0.18124282 0.09891421 -0.055175796 -0.018096017
000190 0a 83 07 be 74 e7 e8 3d f0 1f 89 3d 93 8f a7 3d
       -0.13233581 0.11372271 0.06695545 0.081816815
0001a0 aa 8d e8 3d 10 64 1d 3e 0f 54 ac bd 27 f1 96 bd
       0.11355145 0.15370202 -0.084144704 -0.07370215
0001b0 51 b7 33 3e d7 7b f0 bd db 4f 25 be 10 5c b0 3d
       0.17550398 -0.117423706 -0.16143744 0.086113095
0001c0 0d ab e6 bd 2e 40 b0 3c a6 0e 06 bd eb d0 a0 3d
       -0.11263094 0.021514978 -0.032728814 0.07852348
0001d0 66 85 ae bd 73 eb 66 3d 5b 31 b9 3c 27 5b d0 3d
       -0.085215375 0.056376886 0.022606542 0.10173636
0001e0 1d 56 0e 3d 16 ae bb 3d d3 c3 15 bd f1 0b 2f 3c
       0.034750093 0.09164064 -0.036563706 0.010683999
0001f0 4a 18 b3 3d 16 a8 59 bd a1 62 a2 bd 18 6f 59 bd
       0.08744867 -0.053138815 -0.07928968 -0.053084463
000200 79 3e bd be 48 00 b1 3e d4 6f ea be 30 e6 a3 be
       -0.36961725 0.34570527 -0.45788443 -0.32011557
000210 31 e8 9f be 1b d5 9d 3e 1a 8d dd 3e 75 8d b7 3e
       -0.31231835 0.3082665 0.43271714 0.3585011
000220 08 c2 ae 3e 31 5f a9 3e bb 9e b5 be 5d a1 d3 be
       0.3413241 0.33080438 -0.35472664 -0.41334048
000230 33 91 98 3e 1f 5d b4 be c7 a0 97 be 94 db a9 3e
       0.29798278 -0.35227296 -0.2961485 0.33175337
000240 ce 1a e5 3d 63 11 b6 be 78 14 bc 3e 7b fa d0 3e
       0.11186753 -0.3556014 0.36734366 0.408161
000250 86 0f 42 3e 13 a3 3b be c1 ed b3 be ab 8b 1d be
       0.18951234 -0.18323927 -0.3514233 -0.1538531
000260 83 b5 62 be 62 f3 60 be 08 66 8f 3e 78 6a 7a 3e
       -0.22139554 -0.21967843 0.2800753 0.24454677
000270 b3 bf 0b be 68 9b 4a 3e e4 ce 34 3e 60 dd b7 be
       -0.13647346 0.19785845 0.17657048 -0.35911083
000280 d2 87 7e bf 4e 06 c3 3f 18 56 f6 bf 56 87 c2 bf
       -0.99425995 1.5236299 -1.9245024 -1.5197551
000290 78 3b 98 bf b8 a3 98 3f e2 76 da 3f f2 5d 9d 3f
       -1.1893148 1.1924963 1.706753 1.2294295
0002a0 f0 c7 a7 3f a8 73 93 3f 54 c7 a3 bf ba 81 b2 bf
       1.3107891 1.151967 -1.2795205 -1.394584
0002b0 f7 1f 85 3f 5d a9 a6 bf 37 18 9d bf e0 8b d2 3f
       1.040038 -1.3020436 -1.2273015 1.6448936
0002c0 31 21 46 bf 04 8d 88 3f 48 59 9d bf 57 24 8e bf
       -0.77394396 1.0668035 -1.2292871 -1.110484
0002d0 9a 4f 54 bf 8f d4 5c 3f 5a 7f 95 3f eb b6 5c 3f
       -0.8293396 0.8626184 1.167949 0.8621661
0002e0 8f 2a 61 3f 2b bf 50 3f 57 00 70 bf 17 45 84 bf
       0.87955564 0.815417 -0.9375052 -1.0333585
0002f0 09 d4 41 3f 63 e3 71 bf 0a 23 64 bf 18 8b 8e 3f
       0.75714165 -0.9448759 -0.89115965 1.1136198
000300 29 f6 d1 3e dd 02 45 bf e8 e6 76 3f e8 6a 56 3f
       0.41008118 -0.76957494 0.96446085 0.83756876
000310 e3 23 08 3f 05 54 0b bf 22 79 62 bf a8 8a 09 bf
       0.5317976 -0.5442508 -0.88466084 -0.537272
000320 ed 3b 14 bf d1 40 11 bf e0 96 26 3f 65 27 43 3f
       -0.5790394 -0.56739527 0.65073967 0.76231986
000330 30 ce b4 be 7a 9b 2e 3f e1 37 03 3f 96 60 66 bf
       -0.3531356 0.6820599 0.5125714 -0.8999113
000340 3f 59 38 3f ac 0a 9c bf 9a 0e b4 3f 4f 5a a9 3f
       0.7201118 -1.2190757 1.4066956 1.3230685
000350 5e 15 5e 3f 8a 17 5f bf ed 9d ae bf 38 7b 68 bf
       0.86751354 -0.8714529 -1.3641945 -0.90813017
000360 8e 1d 7d bf 29 c5 6d bf 78 d9 8b 3f b7 57 93 3f
       -0.9887322 -0.9287897 1.0925741 1.1511143
000370 c9 44 35 bf f2 db 81 3f b8 c9 6d 3f 23 8f b0 bf
       -0.7080808 1.0145247 0.92885923 -1.3793682
000380 dc bd 1e bf 29 f3 4b 3f 69 87 6d bf 85 49 46 bf
       -0.6200845 0.7966791 -0.92784745 -0.7745593
000390 40 60 36 bf 6f 65 28 3f da 44 70 3f 09 10 2c 3f
       -0.71240616 0.65779775 0.9385506 0.6721197
0003a0 85 3f 30 3f 4b 49 29 3f 40 a7 29 bf d7 5f 49 bf
       0.68846923 0.6612746 -0.6627083 -0.78661865
0003b0 2f 0c 23 3f 65 90 2b bf 4a 80 20 bf 08 7d 5b 3f
       0.63690466 -0.67017204 -0.62695754 0.8573766
0003c0 e6 f2 8d 3f 17 4c e8 bf 06 cc 08 40 64 82 fd 3f
       1.1089752 -1.8148221 2.1374526 1.9805417
0003d0 c2 ae a7 3f 58 dc a2 bf 8c a5 fa bf 19 8f a9 bf
       1.3100207 -1.2723494 -1.9581771 -1.3246795
0003e0 62 04 bc bf 44 7c ae bf ff 06 c9 3f 57 ee d7 3f
       -1.4688838 -1.3631673 1.570526 1.686961
0003f0 91 da 7e bf 6a 23 bf 3f 0b 83 a6 3f bd d8 f6 bf
       -0.99552256 1.4932683 1.3008741 -1.9284893
